…
=0.05, cls=0.3, cls_pw=1.0, obj=0.7, obj_pw=1.0, iou_t=0.2, anchor_t=4.0, fl_gamma=0.0, hsv_h=0.015, hsv_s=0.7, hsv_v=0.4, degrees=0.0, translate=0.2, scale=0.9, shear=0.0, perspective=0.0, flipud=0.0, fliplr=0.5, mosaic=1.0, mixup=0.15, copy_paste=0.0, paste_in=0.15, loss_ota=1\n","\u001b[34m\u001b[1mwandb: \u001b[0mInstall Weights & Biases for YOLOR logging with 'pip install wandb' (recommended)\n","Overriding model.yaml nc=80 with nc=10\n","\n","                 from  n    params  module                                  arguments                     \n","  0                -1  1       928  models.common.Conv                      [3, 32, 3, 1]                 \n","  1                -1  1     18560  models.common.Conv                      [32, 64, 3, 2]                \n","  2                -1  1     36992  models.common.Conv                      [64, 64, 3, 1]                \n","  3                -1  1     73984  models.common.Conv                      [64, 128, 3, 2]               \n","  4                -1  1      8320  models.common.Conv                      [128, 64, 1, 1]               \n","  5                -2  1      8320  models.common.Conv                      [128, 64, 1, 1]               \n","  6                -1  1     36992  models.common.Conv                      [64, 64, 3, 1]                \n","  7                -1  1     36992  models.common.Conv                      [64, 64, 3, 1]                \n","  8                -1  1     36992  models.common.Conv                      [64, 64, 3, 1]                \n","  9                -1  1     36992  models.common.Conv                      [64, 64, 3, 1]                \n"," 10  [-1, -3, -5, -6]  1         0  models.common.Concat                    [1]                           \n"," 11                -1  1     66048  models.common.Conv                      [256, 256, 1, 1]              \n"," 12                -1  1         0  models.common.MP                        []                            \n"," 13                -1  1     33024  models.common.Conv                      [256, 128, 1, 1]              \n"," 14                -3  1     33024  models.common.Conv                      [256, 128, 1, 1]              \n"," 15                -1  1    147712  models.common.Conv                      [128, 128, 3, 2]              \n"," 16          [-1, -3]  1         0  models.common.Concat                    [1]                           \n"," 17                -1  1     33024  models.common.Conv                      [256, 128, 1, 1]              \n"," 18                -2  1     33024  models.common.Conv                      [256, 128, 1, 1]              \n"," 19                -1  1    147712  models.common.Conv                      [128, 128, 3, 1]              \n"," 20                -1  1    147712  models.common.Conv                      [128, 128, 3, 1]              \n"," 21                -1  1    147712  models.common.Conv                      [128, 128, 3, 1]              \n"," 22                -1  1    147712  models.common.Conv                      [128, 128, 3, 1]              \n"," 23  [-1, -3, -5, -6]  1         0  models.common.Concat                    [1]                           \n"," 24                -1  1    263168  models.common.Conv                      [512, 512, 1, 1]              \n"," 25                -1  1         0  models.common.MP                        []                            \n"," 26                -1  1    131584  models.common.Conv                      [512, 256, 1, 1]              \n"," 27                -3  1    131584  models.common.Conv                      [512, 256, 1, 1]              \n"," 28                -1  1    590336  models.common.Conv                      [256, 256, 3, 2]              \n"," 29          [-1, -3]  1         0  models.common.Concat                    [1]                           \n"," 30                -1  1    131584  models.common.Conv                      [512, 256, 1, 1]              \n"," 31                -2  1    131584  models.common.Conv                      [512, 256, 1, 1]              \n"," 32                -1  1    590336  models.common.Conv                      [256, 256, 3, 1]              \n"," 33                -1  1    590336  models.common.Conv                      [256, 256, 3, 1]              \n"," 34                -1  1    590336  models.common.Conv                      [256, 256, 3, 1]              \n"," 35                -1  1    590336  models.common.Conv                      [256, 256, 3, 1]              \n"," 36  [-1, -3, -5, -6]  1         0  models.common.Concat                    [1]                           \n"," 37                -1  1   1050624  models.common.Conv                      [1024, 1024, 1, 1]            \n"," 38                -1  1         0  models.common.MP                        []                            \n"," 39                -1  1    525312  models.common.Conv                      [1024, 512, 1, 1]             \n"," 40                -3  1    525312  models.common.Conv                      [1024, 512, 1, 1]             \n"," 41                -1  1   2360320  models.common.Conv                      [512, 512, 3, 2]              \n"," 42          [-1, -3]  1         0  models.common.Concat                    [1]                           \n"," 43                -1  1    262656  models.common.Conv                      [1024, 256, 1, 1]             \n"," 44                -2  1    262656  models.common.Conv                      [1024, 256, 1, 1]             \n"," 45                -1  1    590336  models.common.Conv                      [256, 256, 3, 1]              \n"," 46                -1  1    590336  models.common.Conv                      [256, 256, 3, 1]              \n"," 47                -1  1    590336  models.common.Conv                      [256, 256, 3, 1]              \n"," 48                -1  1    590336  models.common.Conv                      [256, 256, 3, 1]              \n"," 49  [-1, -3, -5, -6]  1         0  models.common.Concat                    [1]                           \n"," 50                -1  1   1050624  models.common.Conv                      [1024, 1024, 1, 1]            \n"," 51                -1  1   7609344  models.common.SPPCSPC                   [1024, 512, 1]                \n"," 52                -1  1    131584  models.common.Conv                      [512, 256, 1, 1]              \n"," 53                -1  1         0  torch.nn.modules.upsampling.Upsample    [None, 2, 'nearest']          \n"," 54                37  1    262656  models.common.Conv                      [1024, 256, 1, 1]             \n"," 55          [-1, -2]  1         0  models.common.Concat                    [1]                           \n"," 56                -1  1    131584  models.common.Conv                      [512, 256, 1, 1]              \n"," 57                -2  1    131584  models.common.Conv                      [512, 256, 1, 1]              \n"," 58                -1  1    295168  models.common.Conv                      [256, 128, 3, 1]              \n"," 59                -1  1    147712  models.common.Conv                      [128, 128, 3, 1]              \n"," 60                -1  1    147712  models.common.Conv                      [128, 128, 3, 1]              \n"," 61                -1  1    147712  models.common.Conv                      [128, 128, 3, 1]              \n"," 62[-1, -2, -3, -4, -5, -6]  1         0  models.common.Concat                    [1]                           \n"," 63                -1  1    262656  models.common.Conv                      [1024, 256, 1, 1]             \n"," 64                -1  1     33024  models.common.Conv                      [256, 128, 1, 1]              \n"," 65                -1  1         0  torch.nn.modules.upsampling.Upsample    [None, 2, 'nearest']          \n"," 66                24  1     65792  models.common.Conv                      [512, 128, 1, 1]              \n"," 67          [-1, -2]  1         0  models.common.Concat                    [1]                           \n"," 68                -1  1     33024  models.common.Conv                      [256, 128, 1, 1]              \n"," 69                -2  1     33024  models.common.Conv                      [256, 128, 1, 1]              \n"," 70                -1  1     73856  models.common.Conv                      [128, 64, 3, 1]               \n"," 71                -1  1     36992  models.common.Conv                      [64, 64, 3, 1]                \n"," 72                -1  1     36992  models.common.Conv                      [64, 64, 3, 1]                \n"," 73                -1  1     36992  models.common.Conv                      [64, 64, 3, 1]                \n"," 74[-1, -2, -3, -4, -5, -6]  1         0  models.common.Concat                    [1]                           \n"," 75                -1  1     65792  models.common.Conv                      [512, 128, 1, 1]              \n"," 76                -1  1         0  models.common.MP                        []                            \n"," 77                -1  1     16640  models.common.Conv                      [128, 128, 1, 1]              \n"," 78                -3  1     16640  models.common.Conv                      [128, 128, 1, 1]              \n"," 79                -1  1    147712  models.common.Conv                      [128, 128, 3, 2]              \n"," 80      [-1, -3, 63]  1         0  models.common.Concat                    [1]                           \n"," 81                -1  1    131584  models.common.Conv                      [512, 256, 1, 1]              \n"," 82                -2  1    131584  models.common.Conv                      [512, 256, 1, 1]              \n"," 83                -1  1    295168  models.common.Conv                      [256, 128, 3, 1]              \n"," 84                -1  1    147712  models.common.Conv                      [128, 128, 3, 1]              \n"," 85                -1  1    147712  models.common.Conv                      [128, 128, 3, 1]              \n"," 86                -1  1    147712  models.common.Conv                      [128, 128, 3, 1]              \n"," 87[-1, -2, -3, -4, -5, -6]  1         0  models.common.Concat                    [1]                           \n"," 88                -1  1    262656  models.common.Conv                      [1024, 256, 1, 1]             \n"," 89                -1  1         0  models.common.MP                        []                            \n"," 90                -1  1     66048  models.common.Conv                      [256, 256, 1, 1]              \n"," 91                -3  1     66048  models.common.Conv                      [256, 256, 1, 1]              \n"," 92                -1  1    590336  models.common.Conv                      [256, 256, 3, 2]              \n"," 93      [-1, -3, 51]  1         0  models.common.Concat                    [1]                           \n"," 94                -1  1    525312  models.common.Conv                      [1024, 512, 1, 1]             \n"," 95                -2  1    525312  models.common.Conv                      [1024, 512, 1, 1]             \n"," 96                -1  1   1180160  models.common.Conv                      [512, 256, 3, 1]              \n"," 97                -1  1    590336  models.common.Conv                      [256, 256, 3, 1]              \n"," 98                -1  1    590336  models.common.Conv                      [256, 256, 3, 1]              \n"," 99                -1  1    590336  models.common.Conv                      [256, 256, 3, 1]              \n","100[-1, -2, -3, -4, -5, -6]  1         0  models.common.Concat                    [1]                           \n","101                -1  1   1049600  models.common.Conv                      [2048, 512, 1, 1]             \n","102                75  1    328704  models.common.RepConv                   [128, 256, 3, 1]              \n","103                88  1   1312768  models.common.RepConv                   [256, 512, 3, 1]              \n","104               101  1   5246976  models.common.RepConv                   [512, 1024, 3, 1]             \n","105   [102, 103, 104]  1     82702  models.yolo.IDetect                     [10, [[12, 16, 19, 36, 40, 28], [36, 75, 76, 55, 72, 146], [142, 110, 192, 243, 459, 401]], [256, 512, 1024]]\n","/usr/local/lib/python3.9/dist-packages/torch/functional.py:504: UserWarning: torch.meshgrid: in an upcoming release, it will be required to pass the indexing argument. (Trigger
…
